the model will look like while training

Model: "sequential"
_________________________________________________________________
Layer (type)                 Output Shape              Param #   
=================================================================
conv2d (Conv2D)              (None, 130, 130, 16)      1216      
_________________________________________________________________
max_pooling2d (MaxPooling2D) (None, 8, 8, 16)          0         
_________________________________________________________________
dropout (Dropout)            (None, 8, 8, 16)          0         
_________________________________________________________________
conv2d_1 (Conv2D)            (None, 8, 8, 16)          6416      
_________________________________________________________________
max_pooling2d_1 (MaxPooling2 (None, 2, 2, 16)          0         
_________________________________________________________________
dropout_1 (Dropout)          (None, 2, 2, 16)          0         
_________________________________________________________________
flatten_1 (Flatten)          (None, 64)                0         
_________________________________________________________________
dense_1 (Dense)              (None, 16)                1040      
_________________________________________________________________
dense_2 (Dense)              (None, 3)                 51        
_________________________________________________________________
dense_3 (Dense)              (None, 3)                 12        
=================================================================
Total params: 8,735
Trainable params: 8,735
Non-trainable params: 0
_________________________________________________________________
Epoch 1/10
50/50 [==============================] - 17s 323ms/step - loss: 1.0603 - accuracy: 0.4367 - val_loss: 1.0019 - val_accuracy: 0.4941
Epoch 2/10
50/50 [==============================] - 15s 310ms/step - loss: 1.0048 - accuracy: 0.4089 - val_loss: 1.0005 - val_accuracy: 0.4941
…
